…
2:  Layer (type)                Output Shape              Param #   
2: =================================================================
1: Model: "sequential"
1: _________________________________________________________________
1:  Layer (type)                Output Shape              Param #   
1: =================================================================
3: Model: "sequential"
3: _________________________________________________________________
3:  Layer (type)                Output Shape              Param #   
3: =================================================================
0:  resnet50 (Functional)       (None, 2048)              23587712  
0:                                                                  
2:  resnet50 (Functional)       (None, 2048)              23587712  
2:                                                                  
0:  flatten (Flatten)           (None, 2048)              0         
0:                                                                  
2:  flatten (Flatten)           (None, 2048)              0         
2:                                                                  
0:  dense (Dense)               (None, 512)               1049088   
0:                                                                  
1:  resnet50 (Functional)       (None, 2048)              23587712  
1:                                                                  
2:  dense (Dense)               (None, 512)               1049088   
2:                                                                  
0:  dense_1 (Dense)             (None, 5)                 2565      
0:                                                                  
0: =================================================================
1:  flatten (Flatten)           (None, 2048)              0         
1:                                                                  
2:  dense_1 (Dense)             (None, 5)                 2565      
2:                                                                  
2: =================================================================
1:  dense (Dense)               (None, 512)               1049088   
1:                                                                  
1:  dense_1 (Dense)             (None, 5)                 2565      
1:                                                                  
1: =================================================================
3:  resnet50 (Functional)       (None, 2048)              23587712  
3:                                                                  
3:  flatten (Flatten)           (None, 2048)              0         
3:                                                                  
3:  dense (Dense)               (None, 512)               1049088   
3:                                                                  
3:  dense_1 (Dense)             (None, 5)                 2565      
3:                                                                  
3: =================================================================
0: Total params: 24639365 (93.99 MB)
1: Total params: 24639365 (93.99 MB)
0: Trainable params: 1051653 (4.01 MB)
1: Trainable params: 1051653 (4.01 MB)
1: Non-trainable params: 23587712 (89.98 MB)
0: Non-trainable params: 23587712 (89.98 MB)
0: _________________________________________________________________
…
